saved/trained_weights.pth (torch, 430927 bytes, 8 tensors)

fc1.weight f4 [120, 784]
0	0x3c6180b4	0.013763595
1	0x3b782560	0.0037864074
2	0x3c96d320	0.01841122
3	0xbce970b1	-0.028496118
4	0xbcad238e	-0.021135118
5	0xbbce5438	-0.0062966608
6	0xbd045c76	-0.03231474
7	0xbbb67ef0	-0.0055693313
8	0x3b469960	0.003030382
9	0xbc93c71e	-0.018039282
10	0x3cfd5a6e	0.03092691
11	0xbc1908ce	-0.009340478
12	0x3bff16c0	0.0077846944
13	0x3c10455c	0.008805599
14	0x3cd0268a	0.025409002
15	0x3c1659c0	0.0091766715
16	0x3c7d5a7c	0.015463468
17	0x3bf5eb78	0.0075048767
18	0x3c89e19c	0.016831212
19	0x3d111e27	0.035429146
20	0x3c4fd8c8	0.012685962
21	0xbbecb824	-0.0072240997
22	0x3a9baa00	0.0011876225
23	0xbcd8be0c	-0.026457809
24	0x3cd66efc	0.026175968
25	0xbd01baae	-0.031672172
26	0x3ca80948	0.020512238
27	0x3c24c354	0.0100563355
28	0xbc75bfd8	-0.014999352
29	0xbc876c63	-0.016531175
30	0xbbc6b814	-0.0060644243
31	0xbd0ab0aa	-0.033859886
32	0x3cf40822	0.029789034
33	0x3cb8e21a	0.022568751
34	0xbc01eec0	-0.007930458
35	0x3b4f8a70	0.0031668209
36	0xbbdb07dc	-0.0066842865
37	0xbcb47f10	-0.022033244
38	0xbc320fea	-0.010868052
39	0x3cb4e530	0.022081941
40	0xbcf8d1b1	-0.030373426
41	0xbc9e2e87	-0.019309295
42	0xbcbf4ea3	-0.023352927
43	0xbc84c0de	-0.016205247
44	0x3d0edab9	0.03487656
45	0x3d01d95d	0.031701434
46	0xbca7d348	-0.020486489
47	0x3cf3cd06	0.029760849
48	0xbcd115fc	-0.025523178
49	0x3ae2dae0	0.0017307661
50	0x3cb09bc0	0.021558642
51	0x3cb4ce38	0.022070989
52	0x3bb124c0	0.0054059923
53	0x3ba62828	0.005070705
54	0xbcbcb7d0	-0.023036867
55	0x3c24235c	0.010018196
56	0xbd04da76	-0.032434903
57	0xbc93e9b5	-0.018055776
58	0x3c2fbc98	0.010726117
59	0x3c9c85f2	0.019106839
60	0x3ccd0420	0.025026381
61	0x3cae827e	0.021302458
62	0x3c2b4ec0	0.010455787
63	0xbcc7ec58	-0.02440469
64	0xbb9dcb54	-0.0048154984
65	0xbd09a37e	-0.033603184
66	0x3c3cd9b0	0.01152651
67	0x3c92918a	0.017891664
68	0xbccec12a	-0.025238592
69	0x3d069399	0.032855604
70	0x3c8ebc30	0.01742372
71	0xbc94d507	-0.018167986
72	0xbd026dd6	-0.03184303
73	0xbc897610	-0.01677993
74	0x3caf0e1a	0.021369029
75	0xba1f8d40	-0.00060864165
76	0x3bd8e508	0.0066190995
77	0xbc892913	-0.016743219
78	0xba8593a0	-0.001019109
79	0xbc5020ae	-0.012703104
80	0x3ce84062	0.028351013
81	0x3ca42a98	0.020039842
82	0xbbbd2bc0	-0.0057730377
83	0xbc62e64a	-0.0138488505
84	0xbc29c58a	-0.010362038
85	0xbc9a80a3	-0.018860167
86	0x3a7d0000	0.0009651184
87	0x3c44a2fc	0.012001749
88	0x3bdc0080	0.006713927
89	0xbcd53185	-0.02602459
90	0x3d0177d3	0.031608414
91	0x3c884612	0.016634975
92	0xbcce7c58	-0.025205776
93	0xbd10d4d3	-0.035359215
94	0xbbf6dd78	-0.0075337254
95	0x39c62f00	0.0003780052
96	0xbc39bb38	-0.01133614
97	0xbcdc814a	-0.026917119
98	0xbcf4ffba	-0.029907096
99	0x3cb67ffe	0.022277828
100	0x39dba080	0.00041890517
101	0x3c57bf84	0.0131682195
102	0xbbf7e430	-0.007565044
103	0xbc61618e	-0.013756169
104	0x3c1a4810	0.009416595
105	0x3c8ca10a	0.017166633
106	0x3c388394	0.011261839
107	0x3a20e280	0.0006137267
108	0x3b837698	0.00401194
109	0xbaa512c0	-0.0012594089
110	0x3c818ac8	0.015813246
111	0x3cc8f206	0.024529468
112	0x3d0c1153	0.03419621
113	0xbbc0fef0	-0.005889766
114	0x3caab40a	0.020837802
115	0x3cab73be	0.020929214
116	0xbce540be	-0.027984973
117	0xbc8d9925	-0.017284939
118	0xbb963e5c	-0.0045850705
119	0x3cbdabfa	0.023153294
120	0xbcb04c0c	-0.021520637
121	0x3cdb57bc	0.026775233
122	0x3bc35740	0.0059613287
123	0x3c8b508a	0.017006177
124	0x3bd63b48	0.0065378286
125	0x3cbac5ba	0.022799361
126	0x3bfdf840	0.007750541
127	0xbd0ec89e	-0.034859292
128	0xbccbb1a8	-0.024864987
129	0x3c8d1d84	0.017225988
130	0x3c894c1c	0.016759925
131	0x3c78f7f4	0.015195835
132	0x3d056ac3	0.03257252
133	0xbc853a03	-0.016263014
134	0xbcbf1d8e	-0.023329522
135	0x3c292c3c	0.010325488
136	0x3cc4fa5e	0.024045166
137	0xbc3afa6a	-0.011412242
138	0x3cb3155c	0.02186077
139	0xbd11ca32	-0.03559322
140	0x3cb36fcc	0.021903895
141	0xbce1174a	-0.027476925
142	0x3aa132a0	0.0012298413
143	0x3bbc69c8	0.005749915
144	0xbc8c3d35	-0.01711903
145	0xbcc80f53	-0.02442137
146	0xbc2b877c	-0.010469314
147	0xbbfd4c70	-0.0077300593
148	0xbce90843	-0.028446322
149	0xbb1f6b80	-0.002432555
150	0x3ca55768	0.02018328
151	0xbb8081d0	-0.003921725
152	0xbc6cfcd2	-0.014464574
153	0xbcdc574a	-0.026897091
154	0x3c8c0e05	0.017096529
155	0xbcfcee5a	-0.030875374
156	0xba4fae0e	-0.00079223595
157	0xbb8ab5ad	-0.004233083
158	0x3b32d629	0.0027288294
159	0x3be43367	0.0069641354
160	0x3c837320	0.016046107
161	0xbd240c5f	-0.04005086
162	0xbbd9acd8	-0.006642919
163	0xbbdae773	-0.006680423
164	0xbb9becc0	-0.0047584474
165	0xbb8293a8	-0.003984887
166	0x3cde75c2	0.02715576
167	0x3c35241c	0.011055972
168	0x39e76380	0.00044133887
169	0x3cdf90f2	0.027290795
170	0xbc931b4e	-0.017957356
171	0xbcd894c5	-0.026438126
172	0xbc3442a0	-0.011002213
173	0x3b56b770	0.0032763146
174	0xbc5352b2	-0.012898134
175	0xbcf1f413	-0.029535329
176	0xbcc8738a	-0.024469156
177	0x3b4d4880	0.003132373
178	0x3c0a7df8	0.008452885
179	0xbd05e278	-0.03268668
180	0x3cd86d70	0.026419371
181	0x3b661dbe	0.0035112943
182	0x3c8669ec	0.01640793
183	0x3bd77c9d	0.0065761344
184	0xbc91232b	-0.017716965
185	0xbc93e2f1	-0.01805255
186	0xbcaa6020	-0.02079779
187	0x3bc6d097	0.0060673463
188	0x3cbdefb9	0.023185598
189	0xbc4576e0	-0.012052268
190	0xbcbff52d	-0.023432339
191	0x3cc8077b	0.02441763
192	0xbc2babee	-0.010478003
193	0xbc40613c	-0.0117419325
194	0x3cf2e5a2	0.029650513
195	0x3c4905b0	0.012269422
196	0x3d0cf2d3	0.034411263
197	0x3c4d5340	0.012532055
198	0xbcb2dac0	-0.021832824
199	0xbbb72580	-0.005589187
200	0x3b89ad68	0.00420158
201	0x39f28c00	0.00046262145
202	0xbbf3675c	-0.007428093
203	0x3cbaad62	0.022787753
204	0x3c2b5144	0.010456387
205	0x3cc06abe	0.023488399
206	0xbc741574	-0.014897693
207	0xbae373c0	-0.0017353222
208	0x3ce5d20e	0.028054263
209	0x3cb0f26e	0.021599974
210	0x3cbf26fc	0.023334019
211	0x3cac0ce4	0.02100224
212	0xbcf1457d	-0.02945208
213	0xbd179d4e	-0.03701525
214	0x3b7cff64	0.0038604373
215	0x3cd828d3	0.026386654
216	0x3c46461e	0.012101678
217	0xbc835654	-0.016032375
218	0x3cca7158	0.02471225
219	0xbcdbe17e	-0.026840921
220	0x3c62c158	0.013840042
221	0x3b6780e0	0.0035324618
222	0x3ca85a1a	0.020550776
223	0xbc25d298	-0.01012101
224	0xbd05ab30	-0.03263396
225	0x3cbf2f86	0.02333809
226	0xbc0aad44	-0.008464161
227	0x3cf49f0e	0.029861
228	0x3cad50de	0.021156725
229	0xbc894f65	-0.016761491
230	0xbccd8110	-0.025085956
231	0x3b295800	0.0025839806
232	0xbc9d2dec	-0.019186936
233	0xbcbe8543	-0.023256904
234	0xbce034d5	-0.027368942
235	0xbc6ece8a	-0.01457561
236	0x3b65a0de	0.0035038511
237	0xbd0959eb	-0.033533018
238	0xbd21417f	-0.039369103
239	0x3b2a72f9	0.002600847
240	0xbd0b76f0	-0.034048975
241	0xbc6fdc10	-0.014639869
242	0xbcbd111d	-0.02307945
243	0x3cb23c08	0.02175714
244	0x3b5a779e	0.0033335458
245	0xbd00d212	-0.03145034
246	0xbc86f987	-0.016476406
247	0x3b926058	0.0044670515
248	0x38354400	4.3217093e-05
249	0xbb921b28	-0.0044588037
250	0x3ad84520	0.0016500093
251	0x3c4efc28	0.012633361
252	0xbb260460	-0.0025332198
253	0xbd0a8e3f	-0.033827063
254	0x3cee3ebe	0.029082652
255	0xbc38d446	-0.011281079

fc1.bias f4 [120]
0	0xbc39d2f5	-0.0113418
1	0x3d42e8da	0.047585346
2	0x3bf26e27	0.007398385
3	0x3cb85f93	0.02250651
4	0xbc5b627e	-0.013390182
5	0xbd2bda01	-0.04195595
6	0x3cac02e0	0.020997465
7	0xbc23c8a8	-0.009996571
8	0x3ca9c9f3	0.02072618
9	0x3d30a629	0.043127213
10	0x3c66994a	0.014074633
11	0xbcf2fea1	-0.029662432
12	0x3d7b4494	0.061344698
13	0x3d8c1d8d	0.06841574
14	0xbcd1c4b1	-0.025606485
15	0x3c8c73a1	0.01714498
16	0x3ce4f32f	0.02794799
17	0x3c22e3f1	0.009942041
18	0xbd072421	-0.03299344
19	0xbcc31bce	-0.02381697
20	0xba8b6260	-0.0010634176
21	0x3d4f3a7c	0.050592884
22	0xbc51cf1f	-0.012805729
23	0xba8610ce	-0.0010228397
24	0x3d4e3f14	0.050353125
25	0x3d33ebfd	0.043926228
26	0x3c8aab23	0.016927307
27	0x3cc2291f	0.023701249
28	0xbc4addff	-0.01238203
29	0x3b4d4bc2	0.0031325673
30	0x3d327473	0.043568086
31	0x3cfbdb11	0.030744107
32	0x3d15d8e0	0.03658378
33	0x3c191abc	0.009344753
34	0x3c82a898	0.015949532
35	0x3ba1cd13	0.004937777
36	0xbb16fafc	-0.0023037782
37	0xbc9b402b	-0.018951496
38	0x3d085e0d	0.03329282
39	0x3c8704da	0.016481806
40	0x3d2bcde2	0.041944392
41	0xbd03fea0	-0.03222525
42	0xbbb0779a	-0.0053853514
43	0x3d0fd1ad	0.03511207
44	0x3b870328	0.0041202493
45	0x3c063b3f	0.008192836
46	0x3d5ba0c6	0.053620122
47	0x3b63d449	0.0034763983
48	0xbd018cdc	-0.031628475
49	0x3c98768d	0.018611217
50	0x3d7a38d9	0.06108937
51	0x3bfb42b8	0.0076678656
52	0xbd11f452	-0.035633393
53	0xbbde4f2d	-0.006784341
54	0x3c802a0b	0.015645048
55	0xbd025921	-0.03182328
56	0x3d67c1d7	0.056581344
57	0xbbf66237	-0.0075190323
58	0xbc5ceaf6	-0.013483753
59	0x3d230382	0.039798267
60	0x3da0a6ef	0.0784434
61	0x3c59c9ab	0.01329271
62	0xbc5e99c3	-0.013586464
63	0x3cc01609	0.023448007
64	0x3cdaf822	0.026729647
65	0x3be420a8	0.0069619007
66	0x3cd45d71	0.025923463
67	0x3ce34e55	0.027747313
68	0x3b89396c	0.0041877534
69	0xbc871c96	-0.016493123
70	0x3d20686b	0.03916208
71	0xbc509f5a	-0.012733305
72	0x3d8e0f71	0.06936539
73	0x3d6314dd	0.05543982
74	0x3cb2af16	0.021812003
75	0xbce9fdc2	-0.028563384
76	0x3d301558	0.042989105
77	0xbc60de5a	-0.013724888
78	0xbd278828	-0.040901333
79	0x3ce83cae	0.028349247
80	0x3d1bd31b	0.038043123
81	0x3d1191e1	0.03553951
82	0xbc41668f	-0.011804237
83	0xbc14ae03	-0.009074691
84	0x3b4641a5	0.003025153
85	0x3c4dcbc6	0.01256079
86	0x3bb24267	0.0054400447
87	0x3d82dba9	0.06389553
88	0xbca9e0ec	-0.020737134
89	0x3cedcf2c	0.029029451
90	0xbcac636a	-0.021043498
91	0x3d550b39	0.052012656
92	0xbcade167	-0.021225644
93	0xbcd553f3	-0.026041007
94	0xba0a13ce	-0.00052672334
95	0x3d55b44e	0.052173905
96	0xbc858c5a	-0.016302276
97	0xbd1d6a18	-0.038431257
98	0x3a8ce049	0.0010747995
99	0x3b61be0c	0.0034445552
100	0x3ced1de5	0.028944919
101	0x3b4d8624	0.0031360472
102	0x3d39e809	0.0453873
103	0x3b61ad6e	0.0034435648
104	0xbbd20efe	-0.0064104786
105	0x3afe1dfe	0.00193876
106	0x3d049e60	0.0323776
107	0x3cec0c98	0.028814599
108	0x3d340d6a	0.043958105
109	0xbc6c9a68	-0.01444111
110	0xbc164efb	-0.009174104
111	0x3d1526fa	0.036414124
112	0xbc789151	-0.015171365
113	0x3c8f5da6	0.01750071
114	0x3d787a17	0.06066331
115	0x3cc57bc1	0.024106862
116	0x3d3e6a72	0.046488233
117	0x3d63242a	0.05545441
118	0xbc98d608	-0.018656746
119	0xbb136d6c	-0.002249564

fc2.weight f4 [84, 120]
0	0xbd5f8393	-0.05456884
1	0xbb27305c	-0.0025511002
2	0x3da22f58	0.07919186
3	0xbd5fa533	-0.054600906
4	0x3da4e423	0.08051326
5	0xbcdeedaa	-0.027212936
6	0x3d51de21	0.05123723
7	0x3d2e94fa	0.042622544
8	0x3cdaa818	0.026691481
9	0x3af4eb2c	0.0018685809
10	0xbd996bf1	-0.07491291
11	0x3d9cbc76	0.076531336
12	0xbd2f22d4	-0.042757824
13	0x3da75222	0.081699625
14	0xbdafa85b	-0.08577033
15	0xbcd6430d	-0.02615502
16	0xbcd9562d	-0.02653035
17	0x3db65404	0.089027435
18	0xbd8fd726	-0.07023458
19	0xbcad9316	-0.0211883
20	0xbd2c19d5	-0.042016823
21	0xbaf1413a	-0.001840628
22	0xbd249c93	-0.040188383
23	0x3d16349e	0.036671273
24	0x3d843b2d	0.064565994
25	0x3ccdfa2d	0.025143707
26	0xbd024640	-0.031805277
27	0x3dcb5244	0.099278
28	0x3dbc5675	0.09196178
29	0xbc1a4ecf	-0.0094182035
30	0xbcca3fd0	-0.024688631
31	0xbd111bc1	-0.03542686
32	0x3dcb32da	0.099218085
33	0x3d5d7018	0.05406198
34	0x3ce841fb	0.028351774
35	0xbd7562dd	-0.059908736
36	0xbd37fc5f	-0.044918414
37	0xbdae1db3	-0.085017584
38	0x3d9a8c66	0.0754631
39	0x3d69d6e4	0.0570897
40	0x3c43954f	0.011937453
41	0x3d4c68c2	0.049904592
42	0xbda611dd	-0.08108876
43	0x3daf8982	0.085711494
44	0x3d5013b1	0.05080003
45	0x3d5018b2	0.0508048
46	0x3dc241de	0.094852194
47	0x3dec570c	0.115400404
48	0xbd603413	-0.05473716
49	0xbd676251	-0.056490246
50	0x3b1a9d0f	0.002359215
51	0xbd0d8cbe	-0.03455805
52	0x3d74c35b	0.059756618
53	0xbda327c6	-0.079665706
54	0xbd4c6e04	-0.049909607
55	0x3d3decdf	0.046368476
56	0x3c01b6d3	0.007917124
57	0x3d289757	0.041159954
58	0xbd956079	-0.07293791
59	0xbd442951	-0.047890965
60	0x3dec8059	0.11547918
61	0x3ddb3dec	0.1070517
62	0x3dad29db	0.08455249
63	0x3c143784	0.009046439
64	0x3d816ffd	0.06320188
65	0x3d72241a	0.05911646
66	0x3d372708	0.044714957
67	0xbd3f1ed5	-0.046660263
68	0x3d823862	0.063584104
69	0xbd98507f	-0.074372284
70	0x3b455d53	0.003011544
71	0x3c399fee	0.011329634
72	0x3d524a78	0.05134055
73	0x3d1cdb02	0.0382948
74	0x3d6c5f2d	0.057707954
75	0x3d06f6f1	0.032950345
76	0x3bedce68	0.0072572716
77	0xbda4693a	-0.08027883
78	0x3ce2c4c8	0.027681723
79	0xbcf6839f	-0.030092059
80	0x3dd18677	0.10230725
81	0x3d938e18	0.072048366
82	0xbd7996a9	-0.060934696
83	0x3cecace5	0.028891036
84	0x3d171f4f	0.036895093
85	0xbda3c6bd	-0.07996891
86	0x3dfd6327	0.123724274
87	0x3cedc294	0.029023446
88	0xba955ea5	-0.0011396004
89	0x3dbe568d	0.09293852
90	0x3d876670	0.06611335
91	0x3dc2d8ca	0.095140055
92	0xbbea37f5	-0.007147784
93	0xbd019598	-0.031636804
94	0x3cc43758	0.023952171
95	0x3d524dff	0.051343914
96	0xbdbb3f7b	-0.09142967
97	0xbdc36832	-0.09541358
98	0xbc311315	-0.010807772
99	0xbc290b3b	-0.010317619
100	0x3d9990c4	0.07498315
101	0xbd27fe27	-0.041013863
102	0xbcbcbba0	-0.023038685
103	0x3d94768b	0.07249173
104	0x3da469e2	0.08028008
105	0x3db976a7	0.09055834
106	0x3d98a3b2	0.074530974
107	0x3db806cc	0.089856714
108	0xbc3c7254	-0.011501867
109	0x3d53e3ee	0.051731043
110	0xbbf8861a	-0.0075843455
111	0x3d97f16d	0.07419095
112	0x3d4860c7	0.04892042
113	0xbb92b2e1	-0.0044768904
114	0xbcfa81b0	-0.030579418
115	0xbd6c7483	-0.0577283
116	0x3d940727	0.07227927
117	0x3dee944c	0.11649379
118	0xbd1cd9e5	-0.038293738
119	0x3d670012	0.05639655
120	0xbbb018c0	-0.005374044
121	0xbd7a6b09	-0.061137233
122	0xbd8c0fda	-0.06838961
123	0xbd406677	-0.046972718
124	0xbd9e689c	-0.077347964
125	0xbc8f5aa2	-0.017499272
126	0x3b2a7eef	0.00260156
127	0x3d02145b	0.031757694
128	0xbc961ae5	-0.018323371
129	0x3cd0513d	0.025429362
130	0xbdacfbdc	-0.08446476
131	0xbb83ac58	-0.0040183477
132	0x3d6fa281	0.058504585
133	0x3c9e44de	0.019319948
134	0x3bc9f9ca	0.0061638104
135	0xbd099c82	-0.033596523
136	0x3d801102	0.06253244
137	0x3d5e0d2a	0.054211773
138	0x3d792920	0.060830235
139	0xbcc80330	-0.024415582
140	0x3d7300a8	0.059326798
141	0x3d55cedc	0.05219923
142	0x3cf1a82d	0.029499138
143	0x3d620b01	0.055186275
144	0x3c699953	0.014257747
145	0x3d9c43a5	0.0763009
146	0xbd4a900b	-0.049453776
147	0x3e3e07a8	0.18557608
148	0x3c00042f	0.007813497
149	0xbd673792	-0.05644948
150	0xbd1142e2	-0.035464175
151	0xbd1618cf	-0.036644753
152	0x3cc30c02	0.023809437
153	0x3dba8c5a	0.09108801
154	0x3dc28894	0.094987065
155	0x3d8509e7	0.06496029
156	0xbd158326	-0.036502026
157	0xbb691eb7	-0.0035571286
158	0xbd08954b	-0.033345502
159	0x3d717b14	0.058955267
160	0x3c450556	0.012025198
161	0xbc201b54	-0.0097721405
162	0x3cc688c0	0.02423513
163	0x3dcdb96c	0.10045132
164	0xbd0f678c	-0.03501086
165	0xbcb82adf	-0.02248138
166	0x3cc5fc5c	0.024168186
167	0xbabbe6fd	-0.0014335808
168	0x3d32af41	0.043624166
169	0x3cb067b6	0.021533828
170	0x3dd0fd73	0.102045916
171	0xbdcc50a6	-0.0997632
172	0xbd9ed77a	-0.07755943
173	0xbd42cccb	-0.047558587
174	0x3c6e2c46	0.014536923
175	0xbd999779	-0.07499594
176	0xbc98ce42	-0.018653039
177	0x3dad3225	0.0845683
178	0xbd1bba9d	-0.038019765
179	0xbda9aa1e	-0.082844004
180	0xbd81e1f5	-0.06341926
181	0xbc689812	-0.014196413
182	0xbd855fe1	-0.06512428
183	0xbd72a1e0	-0.059236407
184	0xbd063346	-0.032763742
185	0xbd727303	-0.059191715
186	0xbc2e461b	-0.010636832
187	0x3cc50ebc	0.024054877
188	0xbda64ac0	-0.08119726
189	0x3d8cd457	0.06876438
190	0x3d8b1aa3	0.0679219
191	0x3d1090d8	0.035294384
192	0xbd1d7de7	-0.038450148
193	0x3de1a933	0.110186
194	0x3bbc8e2e	0.005754254
195	0xbd6377e0	-0.055534244
196	0x3c756672	0.014978038
197	0xba7a4908	-0.00095476257
198	0xbdb7bd8d	-0.08971701
199	0xbd6b5b28	-0.05745998
200	0x3de0f33e	0.10983895
201	0xbc3fd2c2	-0.011707963
202	0xbdb6f61a	-0.08933659
203	0xba19a0c5	-0.00058604433
204	0xbd01e18e	-0.031709246
205	0x3d5e7fcd	0.0543211
206	0x3ccbba92	0.024869237
207	0x3da3f67f	0.08006
208	0x3d09df38	0.033660144
209	0xbd3567c3	-0.044288408
210	0xbd978db8	-0.074000776
211	0x3d055b56	0.032557808
212	0x3c817804	0.015804298
213	0x3da83fc0	0.08215284
214	0xbc02e2a0	-0.007988602
215	0x3d8b16e1	0.06791473
216	0x3d4d5c2c	0.05013673
217	0xbd03ab9c	-0.03214608
218	0xbd30aef4	-0.0431356
219	0xbd7cde89	-0.061735664
220	0xbc46adc4	-0.01212639
221	0x3df843c1	0.12122298
222	0x3d129591	0.03578717
223	0xbdaa9222	-0.08328654
224	0x3c035be6	0.008017516
225	0x3dafd03f	0.08584642
226	0xbd2c4706	-0.04205992
227	0x3cb320ca	0.021866221
228	0xbcf0ff61	-0.02941865
229	0x3d511396	0.05104407
230	0x3d4130c8	0.047165662
231	0xbc09d758	-0.008413158
232	0x3db981eb	0.09057983
233	0xbd881601	-0.06644822
234	0x3df36205	0.1188393
235	0x388ef000	6.815791e-05
236	0x3da7ff05	0.08202938
237	0x3dd98254	0.10620561
238	0x3d40b0e7	0.047043707
239	0xbd7ef12d	-0.062241722
240	0x3c450648	0.012025423
241	0x3ccbd4a6	0.024881672
242	0xbd8ebfed	-0.06970201
243	0xbd83a5d5	-0.06428114
244	0xbcaf9716	-0.021434348
245	0xbd37f912	-0.044915266
246	0x3da84cad	0.0821775
247	0xbdc3c7c1	-0.095595844
248	0xbcd2f158	-0.025749847
249	0x3ca3a40e	0.019975688
250	0x3d937769	0.0720051
251	0x3cabd8ef	0.020977465
252	0x3d748503	0.059697162
253	0x3ce48309	0.027894514
254	0x3d3f0ca3	0.04664291
255	0xbbfaef41	-0.007657916

fc2.bias f4 [84]
0	0x3d507fcf	0.050903138
1	0x3c075d2e	0.008261962
2	0x3ca5ccb4	0.020239212
3	0xbd59373e	-0.0530312
4	0xbcdf28aa	-0.02724107
5	0x3d1bf350	0.038073838
6	0x3d22126d	0.039568353
7	0x3b01b37b	0.0019790817
8	0x3dd11b33	0.10210266
9	0x3d030b2f	0.031993087
10	0x3dc7196e	0.09721647
11	0x3da2b7cd	0.079452135
12	0xbd4b547b	-0.049641114
13	0x3d7c9e49	0.06167439
14	0xbcef4826	-0.029209208
15	0x3d6a424f	0.057192143
16	0x3e1b8aa9	0.15189613
17	0xbb8aa1e0	-0.004230723
18	0x3ba7ad1f	0.005117073
19	0xbdb287a8	-0.087172806
20	0x3c6490ef	0.0139505705
21	0xbd412b8c	-0.04716067
22	0x3becb90d	0.007224208
23	0x3d39b49a	0.04533825
24	0x3d1940b5	0.037415225
25	0x3ba8993d	0.0051452206
26	0x3ac1640d	0.0014754549
27	0x3d8e3737	0.06944125
28	0x3c4cd688	0.01250232
29	0xbc0a6bd0	-0.008448556
30	0xbd0bda17	-0.034143534
31	0x3cc85f6b	0.024459561
32	0x3d51bde0	0.05120647
33	0x3e0f96a0	0.14022303
34	0xbd71626d	-0.058931757
35	0x3c00b1e5	0.007854913
36	0xbdcc6d74	-0.09981814
37	0xbc5ff631	-0.013669536
38	0xbd0d4010	-0.034484923
39	0x3c9421d4	0.018082537
40	0x3d17415e	0.036927573
41	0x3d91eea3	0.071255945
42	0x3d91aae8	0.07112676
43	0x3c9d785a	0.019222427
44	0x3d47cb54	0.048777893
45	0xbda3a343	-0.07990124
46	0xbdc0ec33	-0.094200514
47	0xbd55c551	-0.05219013
48	0xbcf96f1f	-0.030448494
49	0xbb66bc04	-0.003520728
50	0xbdaa9448	-0.08329064
51	0x3be7a270	0.0070689246
52	0x3d9e46ba	0.07728334
53	0x3c265aea	0.010153512
54	0xbdc19da4	-0.09453896
55	0xbdb543c9	-0.088508196
56	0xbc5fdeb4	-0.013663936
57	0xbdad47d6	-0.08460967
58	0x3db3bca8	0.08776218
59	0x3d87b432	0.066261664
60	0x3bc4979a	0.0059995176
61	0xbd736555	-0.05942281
62	0x3d4a8986	0.04944756
63	0xbd9ee0ed	-0.07757745
64	0xbd5cadd1	-0.0538767
65	0x3d410cde	0.04713141
66	0x3d82514c	0.063631624
67	0x3dc6b110	0.09701741
68	0x3cc68274	0.024232127
69	0xbd5b0379	-0.05347011
70	0x3d065436	0.032795154
71	0x3d86abda	0.06575747
72	0x3dc968eb	0.09834465
73	0x3dc2881d	0.09498618
74	0x3d94a917	0.07258814
75	0x3ca94312	0.020661864
76	0xbd4111b3	-0.04713602
77	0x3cec566c	0.028849803
78	0x3dac4406	0.08411412
79	0xbc2aba2f	-0.010420366
80	0xbd05387e	-0.03252458
81	0xbc050dc1	-0.008120955
82	0xbce8c8b2	-0.028416011
83	0x3d217bcc	0.039424703

fc3.weight f4 [32, 84]
0	0xbbab2c2c	-0.0052237716
1	0xbdb38e7a	-0.087674096
2	0x3c754510	0.014970079
3	0x3e882e25	0.26597705
4	0xbe29cf77	-0.16583048
5	0xbc93968e	-0.018016126
6	0x3ccb28b1	0.024799677
7	0x3d2e2f28	0.04252544
8	0x3e219e36	0.15783009
9	0x3d2377f8	0.039909333
10	0xbe0613d1	-0.13093497
11	0x3d8b1365	0.067908086
12	0x3d0a9c81	0.03384066
13	0x3dfc016e	0.1230496
14	0x3e091e33	0.13390426
15	0xbe1e70f7	-0.1547278
16	0xbcadde6e	-0.021224227
17	0x3d6b5a76	0.057459317
18	0x3e1680fc	0.14697641
19	0xbcf46270	-0.029832095
20	0x3c66fb28	0.014097966
21	0x3ceb5fec	0.028732263
22	0xbd8aea91	-0.06783021
23	0x3e5707cf	0.20999072
24	0x3e094fec	0.13409394
25	0xbd9ded50	-0.077112794
26	0xbd14e58c	-0.036351725
27	0x3cde55dd	0.027140552
28	0x3e06db6b	0.13169639
29	0xbce16cc8	-0.027517691
30	0x3c87a9f4	0.016560532
31	0x3e7dc463	0.24781947
32	0xbde252ca	-0.11050947
33	0x3e521002	0.20513919
34	0x3e6c91d8	0.2310251
35	0x3cfc31fd	0.030785555
36	0xbce72990	-0.02821806
37	0x3dd4cfb7	0.10391181
38	0x3d8904ae	0.06690346
39	0x3e2953fc	0.16535944
40	0xbe046695	-0.12929757
41	0xbdfda2e8	-0.123845875
42	0xbdefd016	-0.11709611
43	0x3e516437	0.20448385
44	0xbe009d3a	-0.12559977
45	0x3de37a20	0.11107278
46	0xbce0484c	-0.027378224
47	0xbccc9fd0	-0.024978548
48	0x3c9e3b76	0.019315463
49	0x3e255b5c	0.16148132
50	0xbdd78643	-0.10523655
51	0x3e1775d3	0.1479104
52	0x3e5b79f9	0.21433248
53	0x3a2bcfcc	0.00065540965
54	0x3db43a8b	0.08800229
55	0xbd0f13f2	-0.03493113
56	0xbcd28c6e	-0.025701728
57	0x3e4db85f	0.20089863
58	0x3dfe9663	0.12431028
59	0x3d3eec7c	0.046612248
60	0xbe09a0b4	-0.1344021
61	0xbdb8fc7a	-0.09032531
62	0xbd773a79	-0.0603585
63	0xbddb15f6	-0.10697548
64	0xbdc53c09	-0.096305914
65	0xbd9af9d9	-0.07567186
66	0xbdcc7812	-0.09983839
67	0xbd6a8f75	-0.057265718
68	0x3e77a647	0.24184524
69	0xbd78abaf	-0.060710605
70	0xbdbfd4f8	-0.093667924
71	0xbd91c1de	-0.07117055
72	0xbb6ef410	-0.003646139
73	0x3d1e6b1a	0.03867636
74	0x3e00cb6e	0.12577602
75	0x3e68eee1	0.22747375
76	0x3e47e88e	0.19522306
77	0x3dcc458f	0.09974205
78	0x3e8f3bd1	0.27975324
79	0xbbf92760	-0.007603571
80	0xbd050237	-0.032472815
81	0xbdef4066	-0.11682205
82	0x3d7043ae	0.058658294
83	0x3ddb8de3	0.10720422
84	0x3e248ff8	0.16070545
85	0x3e0508e7	0.12991677
86	0x3d8c5795	0.068526424
87	0xbdd02410	-0.101631284
88	0x3e255c6c	0.16148537
89	0xbd0dec78	-0.034649342
90	0x3d9cd8d7	0.076585464
91	0x3e0b4626	0.13600978
92	0x3cde1ecf	0.0271143
93	0x3dd8b7ba	0.10581918
94	0x3e401be6	0.18760642
95	0xbe268aaf	-0.16263841
96	0x3e3508bb	0.17679112
97	0x3e6b7c3b	0.22996609
98	0x3dc2b51d	0.09507201
99	0x3e5651aa	0.2092959
100	0x3ede8059	0.43457296
101	0xbd03018a	-0.03198389
102	0xbe138ab6	-0.14408383
103	0x3c9eb4c3	0.019373303
104	0xbda0c30e	-0.07849704
105	0x3cbba234	0.022904493
106	0x3e1a3e22	0.15062764
107	0xbd5cf2ff	-0.053942677
108	0x3cb06362	0.021531764
109	0x3e7823d0	0.24232411
110	0x3d64e300	0.055880547
111	0x3dc03312	0.09384741
112	0xbdb821ce	-0.08990823
113	0x3c7eee08	0.015559681
114	0xbd4e8599	-0.050420377
115	0xbdcccba4	-0.09999779
116	0x3e5b6cf5	0.21428283
117	0x3d282077	0.041046586
118	0x3e3d8c30	0.18510509
119	0x3e501447	0.20320235
120	0xbd4b6365	-0.049655337
121	0x3d98e463	0.07465436
122	0x3c458844	0.012056414
123	0xbcc2a615	-0.023760835
124	0x3ddb4a07	0.10707479
125	0x3d9fcb61	0.07802463
126	0x3e6aec67	0.22941743
127	0xbd5ed8f6	-0.05440613
128	0x3df5134e	0.11966573
129	0xbd54eab9	-0.05198166
130	0xbce63f40	-0.028106332
131	0xbb215260	-0.002461575
132	0x3e01e686	0.12685594
133	0xbe19dd80	-0.15025902
134	0x3c4f8798	0.012666605
135	0x3e6b586b	0.22982948
136	0xbdb4f320	-0.08835435
137	0x3e33bd8e	0.17552778
138	0xbd887c56	-0.0666434
139	0x3b87c180	0.00414294
140	0x3e506663	0.20351557
141	0xbd8a92c1	-0.06766272
142	0xbc045876	-0.008077731
143	0x3e2e63d5	0.1703027
144	0x3d7b08ef	0.061287817
145	0x3ec59b57	0.38595077
146	0x3db5faf3	0.088857554
147	0x3dd0a129	0.10186989
148	0x3d297eea	0.0413808
149	0xbc671d68	-0.014106132
150	0x3e0d646a	0.13807836
151	0x3dff3b64	0.124625
152	0xbdaa73b3	-0.08322849
153	0xbdb8c88e	-0.09022628
154	0x3a39d480	0.0007088855
155	0x3dcb951a	0.09940548
156	0x3de90453	0.11377778
157	0x3e42c47b	0.19020264
158	0x3d3df982	0.046380527
159	0xbdb8705b	-0.09005805
160	0x3ce17c43	0.027525073
161	0xbe08d201	-0.1336136
162	0xbd96a3d1	-0.07355464
163	0x3d842b95	0.06453625
164	0x3e4ab3e2	0.19795182
165	0x3e83b292	0.25722176
166	0x3dcde38a	0.10053165
167	0x3db10827	0.08644133
168	0x3e031b43	0.12803368
169	0x3d7f1834	0.06227894
170	0x3de458c1	0.11149741
171	0xbde0cae5	-0.10976199
172	0x3ab152b6	0.0013528678
173	0x3dba45a6	0.09095316
174	0x3c167127	0.009182251
175	0xb97b52c4	-0.00023968058
176	0xbcb1eed9	-0.021720337
177	0xbd6136e5	-0.054983992
178	0x3ce594ca	0.02802505
179	0xbd09284c	-0.033485696
180	0x3d35a4f3	0.04434676
181	0x3e05d2f1	0.13068749
182	0x3c8700fa	0.016479958
183	0x3c6962bc	0.0142447315
184	0x3ec7dfda	0.39037973
185	0xbbbd3270	-0.005773835
186	0xbd06a483	-0.032871734
187	0xbd96b1d0	-0.07358134
188	0xbcdf5d10	-0.027266055
189	0xbd2fcf6d	-0.042922426
190	0xbd49c662	-0.04926146
191	0xbe0022b4	-0.12513238
192	0xbe005b0a	-0.12534729
193	0xbd06846d	-0.032841135
194	0x3dfbfcbd	0.123040654
195	0xbbcfefb6	-0.0063457144
196	0xbcf14e45	-0.029456267
197	0x3d374946	0.044747613
198	0xbdb8aba5	-0.090171136
199	0xbdf11e47	-0.11773353
200	0x3d44ef78	0.048079938
201	0x3e135cc4	0.14390856
202	0x3df90e7a	0.12160964
203	0xbb9e3c77	-0.0048289853
204	0xbd8c894a	-0.06862123
205	0x3da2321f	0.07919716
206	0x3d875f4b	0.066099726
207	0xbdd5780f	-0.1042329
208	0x3e12f878	0.14352596
209	0x3de7aca3	0.11312225
210	0x3e0d6525	0.13808115
211	0x3d477b23	0.048701417
212	0x3d60bf2c	0.054869816
213	0xbd1aa555	-0.03775533
214	0xbc1eab6e	-0.009684427
215	0x3d6a50bc	0.0572059
216	0x3e182828	0.14859068
217	0x3cb457a8	0.022014454
218	0x3cb89e7c	0.022536509
219	0x3defc581	0.11707593
220	0xbcb92751	-0.022601755
221	0x3d3534d1	0.044239823
222	0x3ccea335	0.025224308
223	0xbd8560cb	-0.065126024
224	0x3d736ab0	0.059427917
225	0x3c8e31bc	0.0173577
226	0x3d9e46df	0.07728361
227	0x3d2bbd8c	0.041928813
228	0x3dd35274	0.10318461
229	0x3ddac70b	0.10682496
230	0xbd1734f3	-0.03691573
231	0xbdbec584	-0.09315017
232	0xbdd2a49d	-0.10285304
233	0xbcc74fe4	-0.024330087
234	0x3d5f5e29	0.054533157
235	0x3d56cb0f	0.052439746
236	0xbd4c0e63	-0.049818408
237	0x3dbec778	0.093153894
238	0xbda43358	-0.080176055
239	0xbd4cf971	-0.050042573
240	0x3ddded86	0.108363196
241	0x3dcc11b1	0.09964312
242	0xbc124e25	-0.008929764
243	0x3cc7f380	0.024408102
244	0xbdda032d	-0.10645137
245	0x3d8f990f	0.070116155
246	0xbdad6c99	-0.08467979
247	0x3cde1f8c	0.027114652
248	0x3d2eb84d	0.04265623
249	0x3c9be43d	0.01902973
250	0x3d03b7b3	0.03215761
251	0xbccbf5ac	-0.024897419
252	0xbd3b0e38	-0.045667857
253	0xbd556018	-0.052093595
254	0xbd6bba71	-0.05755085
255	0xbd009bb2	-0.031398483

fc3.bias f4 [32]
0	0x3d966430	0.07343328
1	0x3db1365e	0.08652948
2	0x3dffdff4	0.124938875
3	0x3dcb9f3d	0.09942482
4	0x3c92c459	0.017915891
5	0x3d9ea577	0.07746404
6	0xbcd4e6d4	-0.025988974
7	0x3de8404f	0.11340391
8	0xbdc84a40	-0.09779787
9	0xbcf266a6	-0.029589962
10	0x3d4c38ec	0.049858972
11	0xbcf84244	-0.030305035
12	0x3dcc95a6	0.09989481
13	0xbc975397	-0.018472476
14	0x3d269b6f	0.040675577
15	0xbd10c53b	-0.035344344
16	0xbcb27de9	-0.021788554
17	0xbcac810e	-0.021057632
18	0x3c2c450b	0.010514508
19	0xbcba8bcc	-0.022771738
20	0x3d28ecc4	0.041241422
21	0x3ddd070b	0.10792359
22	0x3d736979	0.05942676
23	0x3b1bb13e	0.0023756768
24	0x3d8058a2	0.06266905
25	0x3dc6390b	0.09678849
26	0x3d6a0bb0	0.057140052
27	0x3d6c692e	0.057717495
28	0x3d36071b	0.04444037
29	0x3db7c073	0.08972254
30	0x3db6cc80	0.08925724
31	0xbcc7558d	-0.024332786

fc4.weight f4 [2, 32]
0	0x3e933aba	0.28755742
1	0xbee7f9cd	-0.4530777
2	0xbe707b7f	-0.2348461
3	0x3e1f3008	0.15545666
4	0xbe4bc9b3	-0.19901161
5	0xbe1f789f	-0.15573357
6	0x3de355a0	0.11100316
7	0xbe1099f2	-0.14121225
8	0xb9b029a8	-0.00033600372
9	0x3d938b3b	0.072042905
10	0x3d702c1c	0.058635816
11	0x3dc1dc86	0.0946589
12	0xbe642860	-0.22281027
13	0xbbbaed42	-0.005704553
14	0x3e2f83a9	0.17140068
15	0x3e15cd31	0.14629056
16	0x3e07bf46	0.13256559
17	0xbe6a4f4f	-0.22881816
18	0xbdd18447	-0.10230308
19	0x3e36afb4	0.17840463
20	0xbd6723ba	-0.056430556
21	0x3b8c68a7	0.0042849365
22	0xbafcc3b1	-0.0019284395
23	0x3cee81e4	0.029114671
24	0xbf7ecf8a	-0.9953543
25	0xbd2ed423	-0.042682778
26	0xbdfcccab	-0.12343725
27	0xbd079997	-0.03310546
28	0xbe392ac3	-0.18082719
29	0x3dc38299	0.09546394
30	0xbe09314a	-0.13397709
31	0x3d1b4538	0.03790781
32	0xbf1412db	-0.5784127
33	0x3d6c0b9e	0.057628267
34	0xbc813df7	-0.015776617
35	0xbde8b75f	-0.113631
36	0x3d26b1d5	0.040696938
37	0x3de472a2	0.11154677
38	0xbe48f0cd	-0.19623108
39	0x3dd72a96	0.105061695
40	0xbcfb8b99	-0.030706214
41	0xbd475438	-0.0486643
42	0x3e29914e	0.16559336
43	0x3dc8e7ce	0.09809838
44	0x3e3deb35	0.18546756
45	0xbdb36407	-0.08759313
46	0xbe4fdeb9	-0.20299806
47	0xbe2ba069	-0.1676041
48	0x3e30000e	0.17187521
49	0xbd2a3116	-0.04155072
50	0xbe600c17	-0.21879612
51	0xbe072b62	-0.13200143
52	0x3e1c0e1d	0.15239759
53	0xbdcc357a	-0.09971137
54	0x3e07ad55	0.13249715
55	0xbc29addf	-0.0103563955
56	0xbf86fbf1	-1.0545636
57	0xbe2ee75d	-0.17080446
58	0xbd1eae11	-0.03874022
59	0x3d5967dd	0.053077567
60	0xbcb1e4bf	-0.02171552
61	0xbe62b853	-0.22140627
62	0x3da0bea4	0.07848862
63	0xbc11b2d1	-0.008892731

fc4.bias f4 [2]
0	0xbd987e90	-0.07446015
1	0xbd9fc0ed	-0.078004695
